AttentionAgent/pretrained/cartpole/model.npz (npz, 2894 bytes, 1 tensors)

params f4 [657]
0	0x3ecfe7f6	0.4060666
1	0xbf1d241f	-0.6138324
2	0xbee90314	-0.4551016
3	0x3f9581b6	1.168021
4	0x3ffe4eee	1.9867837
5	0xbe9e502d	-0.30920544
6	0xbf0cf026	-0.5505394
7	0xbf9cf2ec	-1.2261634
8	0x3fbae99b	1.4602541
9	0x3e00aa56	0.12564978
10	0x3f38ce87	0.72190136
11	0x3f2c3e19	0.67282254
12	0xbf4ea20a	-0.80716
13	0xbfde23b9	-1.7354652
14	0x3b312e37	0.0027035603
15	0x40226cb7	2.5378854
16	0x3fcd456e	1.6036813
17	0xc00be7b1	-2.1860163
18	0xc05c2d9e	-3.4402843
19	0xbe2438bb	-0.16037266
20	0xbea0322a	-0.31288272
21	0x3f21ddb2	0.63228905
22	0x3ed79acb	0.42110285
23	0x3e861ce9	0.26193932
24	0xbdcb9abb	-0.09941622
25	0x3f945cb8	1.1590796
26	0xbe9e275c	-0.30889404
27	0xbebdf1c0	-0.37098503
28	0x3d4fbe8c	0.05071883
29	0x3f8d6667	1.1046876
30	0x3fc567ab	1.5422262
31	0xbfe4396c	-1.7830024
32	0xbf0e1524	-0.5550101
33	0xbfcc18fb	-1.5945123
34	0xbea5f582	-0.3241387
35	0xbf2a0a52	-0.66422
36	0xbd1dd9ca	-0.038537778
37	0xbd82af49	-0.06381089
38	0x3f444f48	0.76683474
39	0xbf516f40	-0.8181038
40	0x3f3d6781	0.7398606
41	0x3f2d9a7d	0.67813855
42	0x3ede0e46	0.43370265
43	0xc0440671	-3.0628932
44	0xbf553216	-0.8327955
45	0xc0539dab	-3.3064983
46	0xbf85a701	-1.044159
47	0x3f612872	0.8795234
48	0x3fe814fa	1.8131402
49	0x3eb81493	0.35953197
50	0xbed5100f	-0.41613814
51	0x3dd07ba4	0.101798326
52	0x3f3da011	0.74072367
53	0xbfa2b2ad	-1.2710778
54	0xbfe29055	-1.7700297
55	0xbfbef510	-1.4918537
56	0xbd897e63	-0.067135595
57	0xbec4b1d8	-0.38416934
58	0xbfe2bd4b	-1.7714018
59	0xbf262ff4	-0.6491692
60	0xbf22bfb3	-0.6357376
61	0xbfa5579b	-1.291736
62	0x3fc2dc81	1.5223542
63	0xbdaea4db	-0.085275374
64	0xbf293e66	-0.6611084
65	0x40159d6b	2.337733
66	0x3f7540eb	0.9580218
67	0x3ff3e895	1.9055353
68	0xc010fb61	-2.265343
69	0xbdb797c2	-0.089644924
70	0xbfcb9474	-1.5904679
71	0xbef029be	-0.46906847
72	0x3e961e1a	0.2931984
73	0x40164851	2.3481638
74	0xba1b276a	-0.0005918654
75	0xc02132b5	-2.51872
76	0xc03021d8	-2.7520657
77	0xbfa5bf5b	-1.2949022
78	0x3f892dd9	1.0717117
79	0x3e897da2	0.26853663
80	0xbf15a0c9	-0.58448464
81	0xbf655ea3	-0.8959753
82	0x3e9c673b	0.3054751
83	0xbff7b0fa	-1.9350884
84	0xbe1ad6de	-0.15121028
85	0x3f7a7b2e	0.9784421
86	0xbf3bf603	-0.7342226
87	0xbf09f976	-0.5389627
88	0xbe7b57e9	-0.24545254
89	0x3f522f9e	0.8210391
90	0xbfa1e934	-1.2649293
91	0xbf83a5a1	-1.0284921
92	0xbf047618	-0.51742697
93	0x3fa5e401	1.2960206
94	0xbe7bb151	-0.2457936
95	0x3f25b157	0.64723724
96	0xbf56440a	-0.8369757
97	0x3f445e1d	0.76706105
98	0xbf718e77	-0.9435801
99	0xbfbddced	-1.4833046
100	0x3f116ee4	0.5680983
101	0x3e699819	0.22811927
102	0x3ed6ead7	0.41976044
103	0xbf02e236	-0.5112642
104	0x3f2b766c	0.6697757
105	0x3fc0b01d	1.5053746
106	0xbf89eb56	-1.0774944
107	0xbd8d605c	-0.06903145
108	0x3e15b563	0.14619975
109	0xbe92c48a	-0.28665572
110	0x3f3e4827	0.74328846
111	0xbe7d29b0	-0.24722934
112	0xbdee9497	-0.11649435
113	0x40232d4e	2.5496402
114	0x3ed5827a	0.41701108
115	0xbf30bff9	-0.6904293
116	0x3f99cfba	1.2016518
117	0xbf8937af	-1.0720118
118	0x3f1fa50c	0.62361217
119	0xbfaccdbc	-1.3500285
120	0x3f5da7e7	0.86584324
121	0x3f9930c0	1.1968002
122	0x3f616588	0.8804555
123	0xbd0cffc7	-0.034423616
124	0x3efdbd64	0.49558556
125	0xbfc4cedd	-1.537563
126	0x3f95bb55	1.1697794
127	0xbdd59e26	-0.10430555
128	0x3e751dd3	0.23937158
129	0xbedc1f28	-0.4299252
130	0x3f06cd1e	0.52656734
131	0x3e38d070	0.18048263
132	0x3fb45ccb	1.4090818
133	0x3f31f691	0.69516855
134	0xbfd20f8b	-1.6410993
135	0xbf7a36e7	-0.97740024
136	0xbf05cdcf	-0.52267164
137	0xbe10caba	-0.14139834
138	0xc0192f51	-2.393513
139	0xbe4c8e3f	-0.19976138
140	0xbfa67f3a	-1.3007576
141	0x3f3e4c73	0.743354
142	0xbdb51b44	-0.08843091
143	0xbf24d5bc	-0.6438863
144	0x3f8733d3	1.056269
145	0xbe81653f	-0.25272557
146	0xbefe18ff	-0.49628446
147	0x3f83aa68	1.0286379
148	0x3c06b439	0.008221679
149	0xbed682cc	-0.41896665
150	0x3f6ff786	0.93737066
151	0xbefdb839	-0.49554613
152	0x3cd1f909	0.025631445
153	0xbf03e2ba	-0.5151783
154	0x3ef2dfe6	0.47436446
155	0x3f6de3e9	0.9292589
156	0x3db4199e	0.087939486
157	0xbe9a81cf	-0.3017716
158	0xbf9af429	-1.2105762
159	0xbfcc9b38	-1.5984869
160	0x3eac8f7f	0.3370323
161	0x3fe0d365	1.7564512
162	0xbe005623	-0.12532859
163	0xbe4b4483	-0.19850354
164	0xbfae15ef	-1.3600444
165	0x3ec99c61	0.3937712
166	0x3fefe950	1.8743076
167	0xbe23c1bb	-0.15991871
168	0x3fbcb7ab	1.4743551
169	0x3e5a8018	0.21337926
170	0xbfa43152	-1.2827551
171	0xbf07b6e5	-0.5301345
172	0xbec3abf5	-0.3821713
173	0xbe4a7b1e	-0.19773528
174	0x3eafe48d	0.34354058
175	0x3e7125c3	0.23549561
176	0x3f58b0e6	0.84644926
177	0xbda4ca80	-0.08046436
178	0x3e906e79	0.28209284
179	0x3f84787a	1.0349267
180	0xbf95763e	-1.167671
181	0xbe52742c	-0.20552129
182	0xbf2935e7	-0.66097873
183	0x3cafba1e	0.021451052
184	0x3e06cd19	0.13164176
185	0xbe68b9da	-0.22727147
186	0xbf8839e8	-1.0642672
187	0xbfce4a73	-1.611647
188	0xbecc7ed4	-0.39940512
189	0xbe1665be	-0.14687249
190	0x3f0307c8	0.5118375
191	0x3f47753f	0.7791328
192	0x3f32e564	0.6988127
193	0xc00b2cce	-2.1746097
194	0xbf5941ca	-0.8486601
195	0xbda5be71	-0.080929644
196	0xbf62a33b	-0.8853032
197	0x3f858932	1.0432494
198	0xbe28559c	-0.16438907
199	0x3f179620	0.5921345
200	0x3f1282ab	0.57230633
201	0xbf029685	-0.51010925
202	0xbf950d4d	-1.1644684
203	0x3eb20914	0.3477255
204	0xbe3f311e	-0.1867108
205	0x3e1760c0	0.14783001
206	0x3f47a05c	0.77979064
207	0x3fbb58f1	1.4636518
208	0xbf2680eb	-0.65040463
209	0x3f214516	0.6299604
210	0x3f0e5b11	0.55607706
211	0x3f2b3f32	0.66893303
212	0x3f5edbae	0.87053955
213	0x3ef3f9e4	0.4765159
214	0x3fb19d28	1.3876085
215	0xbe1c964d	-0.1529171
216	0x3d6a88d8	0.05725941
217	0xbf7febb8	-0.99969053
218	0xbf4015f8	-0.7503352
219	0xbf6b0e5d	-0.9181879
220	0xbf31d86d	-0.69470865
221	0x3fc33531	1.5250608
222	0x3f6dd9ce	0.9291047
223	0x3f49ff36	0.78905046
224	0x3f192daa	0.598353
225	0x3f499869	0.78748184
226	0xbf79e39e	-0.9761294
227	0xbef183fb	-0.47171006
228	0x3f0d3b1d	0.55168325
229	0x3e564f63	0.20928721
230	0xbf834011	-1.0253927
231	0x3e36cd55	0.17851765
232	0x3f9596fe	1.1686704
233	0x3f5e481a	0.8682877
234	0x3ecc9f70	0.3996539
235	0xbf0e063d	-0.5547827
236	0xbf07c8ed	-0.53040963
237	0x401b0432	2.422131
238	0x3f1c5074	0.6106026
239	0xbf5e3795	-0.8680356
240	0x3ecc2134	0.39869082
241	0x3f86469f	1.0490302
242	0xbf9b2878	-1.2121725
243	0x3dbfc2d1	0.0936333
244	0x3d9a8de1	0.075465925
245	0xbe300007	-0.1718751
246	0x3e09b44c	0.13447684
247	0x3f7dbf67	0.9912018
248	0xbfa388f5	-1.2776171
249	0x3f4aa0c4	0.7915156
250	0xbeacae51	-0.33726743
251	0xbf22e1b0	-0.6362562
252	0xbf99bd2a	-1.2010853
253	0x3f72be68	0.94821787
254	0x3fb07246	1.3784873
255	0x3e9a2521	0.30106452
