AttentionAgent/pretrained/CarRacing/model.npz (npz, 14914 bytes, 1 tensors)

params f4 [3667]
000000 67 74 47 3e 06 8f f7 be 42 b1 f4 bd fe ba 40 3f
       0.19477998 -0.48351306 -0.11947872 0.7528533
000010 4f 33 29 3f 66 dc 21 be 0f e4 f3 be c5 c5 df 3e
       0.66093916 -0.15806732 -0.47634932 0.43705574
000020 bb 8d 51 3f db 55 38 bf d5 8e 9d 3e 6c 78 17 bf
       0.8185689 -0.72006005 0.30773035 -0.59168124
000030 4a 46 5a 3f 53 d3 70 bf 8a 56 69 be 96 42 18 be
       0.852635 -0.94072455 -0.22786918 -0.1486915
000040 0b 43 0a 3d 33 19 11 bf 19 3b 06 3f 54 b7 32 3d
       0.033755343 -0.56679076 0.52433926 0.043631867
000050 34 56 2c bf ba d3 e3 3e 3b 05 6b 3e 74 54 a8 bd
       -0.67319036 0.44497472 0.22951214 -0.08219233
000060 79 ad d8 bd d7 4c bf 3e 1a 15 d2 3e f2 31 e9 3c
       -0.10579962 0.37363312 0.41031724 0.028466199
000070 8a c6 02 be e0 63 72 3e 34 01 0e 3e ed 76 f0 3d
       -0.12771049 0.23670912 0.13867646 0.11741433
000080 30 98 1a bf 47 e6 18 3f c5 5e 99 bc 2f 3b 59 be
       -0.6038847 0.59726375 -0.018721947 -0.21213983
000090 24 f9 dc bd a2 0b 02 3f 20 9a 81 be 84 0e 1a 3f
       -0.10789707 0.50799 -0.253129 0.601784
0000a0 e7 2c 5a be 35 3d cc be 44 ea 05 bd 73 2b b8 bd
       -0.21306191 -0.39890447 -0.032694116 -0.08992662
0000b0 5d a1 18 3e fb 4c 11 be 95 3d cf 3d b7 03 ab 3e
       0.14905305 -0.14189522 0.10119168 0.33401272
0000c0 6a fc a4 be fa 03 49 bf 3d 4b 19 3e e0 b5 ba be
       -0.32223827 -0.7852169 0.14970107 -0.36466885
0000d0 f2 ae 1a bf a6 1b 7c be 0f 3b c4 3e 01 5f 38 bf
       -0.60423195 -0.24619922 0.38326308 -0.72019964
0000e0 c8 d7 39 3c ac 50 83 be fd dd d3 be 54 b7 9d bd
       0.01134295 -0.25647485 -0.413803 -0.07700983
0000f0 67 60 80 3f 70 42 f4 be b5 d2 05 3d c2 47 54 3f
       1.002942 -0.47706938 0.03267165 0.82921994
000100 27 24 7e be 65 45 ef 3d e9 a5 52 3e 3f e4 ce 3c
       -0.24818479 0.11683158 0.20571102 0.02525532
000110 8b 5c 13 bf 48 84 1a 3e 26 20 ea 3e e4 7b 23 bf
       -0.57563084 0.15089524 0.45727652 -0.6386092
000120 b8 53 2d 3f 68 95 a0 3e fa 3c 3e bf c9 29 fc 3d
       0.6770587 0.31363988 -0.7431179 0.123126574
000130 b8 f1 a7 3e 34 56 31 3f 81 ed 2b 3f 73 b9 52 3e
       0.32801604 0.6927216 0.6715928 0.20578556
000140 d1 15 7f 3e b1 a6 a0 be 32 fb 77 3e cf ac ad bc
       0.24910666 -0.31377175 0.24216917 -0.021200566
000150 1d 29 45 bf b3 e0 3a 3e 7d de af 3d f5 34 14 bf
       -0.7701586 0.18249778 0.08587358 -0.57893306
000160 b7 51 fc 3e 9f 80 dd 3e 81 e2 04 bd b8 d8 27 3f
       0.49281093 0.43262193 -0.032442573 0.6556506
000170 62 3b 7e 3d 6e 26 78 3e e1 94 a1 3e 1e 9c 10 3e
       0.06206835 0.2423341 0.31558898 0.14122054
000180 b1 15 74 be e5 5e b7 3c 25 12 a6 be eb a7 cf be
       -0.238364 0.022384116 -0.32435718 -0.405578
000190 7e 1c 96 bb 60 12 f4 bd 36 f2 b2 3e b7 1a 56 be
       -0.0045810333 -0.11917567 0.34950417 -0.20908628
0001a0 8c 25 a9 bc 8c 6f 30 3d 37 fc 83 3c 75 77 ec 3d
       -0.020647787 0.04307513 0.016111476 0.11546222
0001b0 5d d8 d0 3e f9 2c 37 be 11 2e 5c 3f 17 83 39 be
       0.40790072 -0.1788825 0.8600779 -0.18116413
0001c0 9f 28 1e 3f c5 00 a4 bd c2 35 25 3f 71 43 8d be
       0.6178073 -0.08007959 0.6453515 -0.27590516
0001d0 de e4 36 3e 17 ad 9d bd 0b d6 86 3f 0a 0e f4 3e
       0.17860743 -0.0769903 1.0534071 0.4766696
0001e0 3b bb a8 3e 73 60 f6 3d b3 89 32 3e 13 c7 15 be
       0.32955346 0.12030115 0.1743534 -0.14626722
0001f0 ae bc e7 3e de be b8 be e8 98 89 3c 0b 26 9f bb
       0.4526114 -0.3608312 0.016796544 -0.00485683
000200 c6 2c d5 be c9 5b 7e be 92 3c 05 bf 2f 6e 5f be
       -0.41635722 -0.24839701 -0.5204555 -0.21819375
000210 db 6a f2 3e 84 de 0d bd f5 ce 63 3f 04 7f bb be
       0.4734715 -0.034636036 0.88987666 -0.36620343
000220 f7 8c 10 3e da 1c 92 3d 79 69 1a 3e ad 18 07 3d
       0.14116274 0.07134409 0.15079297 0.032982517
000230 0e 5f 0a be 30 f4 37 be 72 86 56 bf 82 4a ab be
       -0.13512823 -0.17964244 -0.837989 -0.33455282
000240 c4 5d 09 3e 33 79 dc 3e 9e a2 20 3e b5 c2 3c 3e
       0.13414675 0.43061218 0.15687034 0.1843365
000250 5b a4 44 bb 1d 5f d8 3d 76 7c 2b bf f0 f7 0b bf
       -0.003000519 0.105650164 -0.6698679 -0.546752
000260 78 08 00 3f fa a2 6f 3e e1 9d 1f 3f f1 79 c5 be
       0.5001292 0.23402014 0.6235028 -0.38569596
000270 1c 5d b4 3d 8d 4e a9 3a 3b 18 4b be e2 51 00 3c
       0.08806822 0.0012917087 -0.19833462 0.007832022
000280 f6 07 87 bb 1d 31 b4 be d5 c0 b3 be 78 8d 18 be
       -0.004120822 -0.3519372 -0.35108057 -0.14897716
000290 78 64 52 3f 0c 06 95 bf 71 a6 09 3f b5 b3 b0 bd
       0.82184553 -1.164247 0.53769594 -0.086280264
0002a0 eb e8 4c 3f bf 74 fb 3d 61 3b 71 be 1b 8b 82 3e
       0.80042905 0.12278127 -0.23557808 0.25496754
0002b0 b0 34 2b 3f 9e 8d 22 bf 67 71 13 3f b9 16 91 3f
       0.6687727 -0.6349734 0.57594913 1.133506
0002c0 e9 b2 de 3e b8 a0 1d bf c4 15 fd 3e d5 8b 7c 3e
       0.43495873 -0.6157336 0.49430668 0.24662717
0002d0 7a 88 11 3e 27 3c a2 3e 71 b8 9f bd 01 87 58 be
       0.14212218 0.31686518 -0.07798851 -0.2114525
0002e0 56 4e e8 be 3b 61 2e 3f ff 1c 88 be 79 bc cb 3e
       -0.45372266 0.6811711 -0.26584622 0.3979223
0002f0 83 62 22 3f 78 91 30 bf 57 8d 05 3e a7 54 1c be
       0.63431567 -0.6897197 0.13042198 -0.15266667
000300 1d 34 07 3e 9f c8 53 3e 0b a4 9c be 60 6a 14 3e
       0.13203473 0.20682 -0.30593905 0.14493704
000310 e5 6c 53 bd 63 2c 76 bd 4d 8b a0 be ca 59 03 be
       -0.05161752 -0.060100924 -0.31356278 -0.1282722
000320 d2 7b 82 be 5b 09 26 3f c0 53 23 3e 15 e1 69 3d
       -0.25485092 0.64858025 0.15949917 0.05709942
000330 1e 3e 89 bf 46 c4 76 3f 7d 0d 05 3f ed 8d 4a be
       -1.0722082 0.9639324 0.51973706 -0.19780703
000340 6d e6 73 be f0 fa a7 bf 07 69 59 3f 99 ea 5e 3e
       -0.23818369 -1.3123455 0.84925884 0.2176918
000350 f3 69 6d 3e 78 90 f7 3e 20 4d 1c 3d c5 65 b6 3e
       0.23184948 0.48352408 0.03815949 0.3562452
000360 1b e3 77 3d d4 3f fa 3e 04 30 02 3f af 38 97 be
       0.06051932 0.48876822 0.50854516 -0.29535434
000370 f6 6c 14 bf 01 b2 4a 3d 35 ad 13 be a9 50 82 be
       -0.5797876 0.049486164 -0.14421542 -0.25452164
000380 34 e8 f8 be 37 5b 02 3e ec 27 11 3e 7a 39 d3 3e
       -0.48614657 0.12730108 0.14175385 0.4125479
000390 53 89 b0 3e 8c da 37 bf c7 09 5c be a5 67 5a bf
       0.3447977 -0.7181785 -0.21488105 -0.853144
0003a0 36 0c 88 be 7e c1 7e be 3b c5 1b bf 72 ce 7f bd
       -0.26571816 -0.24878499 -0.60847825 -0.06245274
0003b0 6e 50 f6 be 62 25 29 bf 37 9b 1a be e0 8d 1f be
       -0.48108238 -0.66072667 -0.15098272 -0.15581465
0003c0 31 c2 18 3e a8 c6 a2 be ba 75 1e bf 92 08 f1 be
       0.14917828 -0.31792188 -0.61898386 -0.4707685
0003d0 6e ed 56 bf 16 3b 99 3c c0 28 29 3f a3 f8 13 bf
       -0.8395604 0.018704932 0.66077805 -0.57801265
0003e0 bb 19 5f be 68 9a 6f bf ea 04 17 3e 40 a5 e2 bc
       -0.21787159 -0.9359498 0.14747968 -0.027666688
0003f0 7d b3 cc 3e 79 d8 cd be 15 fd 82 be 65 b1 51 3e
       0.3998069 -0.40204218 -0.2558371 0.20477827
