AttentionAgent/pretrained/carracing/model.npz (npz, 14934 bytes, 1 tensors)

params f4 [3667]
0.14705224 0.4161496 -0.109963164 0.248659 0.28176823 0.28828946 -0.19037497 0.015434202
0.44973013 -0.07087918 -0.16713965 -0.06287565 0.06517543 0.16795324 0.27740195 0.14692485
-0.26764485 0.06529148 -0.014711935 -0.09572957 -0.059545442 0.35574406 -0.037828136 0.19048822
-0.042330045 -0.05238062 -0.038447443 -0.42194846 -0.0007845065 0.3257477 -0.1748371 0.049721632
0.19070795 0.33041975 0.26775146 0.047930196 -0.15490763 0.12989363 -0.023429371 0.13420759
0.3043938 -0.29548493 -0.18913886 0.107985824 0.051987246 -0.18040879 -0.102550745 0.12950806
0.22914845 0.24793307 0.048874836 0.1744021 0.1091059 0.2337331 0.035062056 -0.03238736
0.11550463 -0.17591488 -0.11779687 -0.03468931 0.0076720626 0.2962158 0.0035295968 0.2133398
0.13630436 -0.28458074 -0.20347373 -0.080900624 -0.0033701423 -0.27634165 0.07872751 0.19388099
-0.14080626 0.44527054 0.008943836 0.09783411 -0.08360105 0.0450848 -0.08095044 0.16545427
-0.04159065 -0.054827556 0.24362029 0.021948455 -0.07940949 -0.06580185 -0.16464823 -0.26833364
-0.11350691 0.18649843 -0.28468448 0.19317351 0.26942003 0.3004061 0.13098222 0.11386144
0.10437752 -0.22271152 -0.01774118 0.113933936 0.13903579 0.48248205 -0.01359465 0.1118905
-0.25130656 0.13857973 0.035469513 0.22929992 0.04696289 0.18893409 0.08748455 0.08674228
0.31386358 0.0020950448 0.18041074 0.487912 0.06868366 0.29932225 0.15966533 -0.4120865
-0.1821833 -0.023185724 -0.087858915 0.09557357 -0.018243723 -0.07794427 -0.06290826 -0.03641895
0.33234787 0.43764436 0.18414342 0.014377992 -0.08495833 0.03800946 0.02063067 0.3488531
0.2748399 -0.04748138 0.017501418 0.24865599 0.1260439 0.35996985 0.092943795 0.020087669
0.46587965 0.4047256 -0.11862569 -0.21001755 0.041152984 0.27744225 -0.14817311 -0.29311147
-0.20319681 0.073830314 0.0388963 -0.2591449 0.26993555 -0.25173956 0.3057839 -0.03253266
-0.08082182 -0.026557103 -0.022268124 -0.2660886 0.30807275 0.2384254 -0.32568392 0.31560564
-0.14692402 0.19895804 -0.22580878 0.108290546 0.22865036 -0.045992132 -0.10658256 -0.08158868
0.012995971 -0.17949033 -0.14348483 0.2393721 -0.06897877 0.022569131 -0.09047121 0.033133045
0.043844175 0.2368049 0.29135802 0.09193738 -0.17643052 0.01710295 0.05804262 0.011047182
-0.140243 0.0677153 -0.091212936 -0.0044370675 -0.32515097 0.09922445 0.036583584 0.046962943
0.44622004 0.14971639 0.27661973 0.120128825 0.23930465 0.45487714 0.09251604 -0.2533322
-0.16706027 0.15926035 -0.122799575 -0.030203877 -0.0707802 0.19683154 0.094381735 -0.2993049
0.12929386 0.1646305 0.10212593 -0.11716514 0.041538186 0.0024272462 -0.21817473 0.14584318
-0.1036189 0.2699316 -0.0867956 0.20232011 0.073275596 0.17042665 0.1250278 -0.1128672
0.036254536 0.07277291 0.437174 0.2198301 0.2156471 -0.0343407 -0.21021159 0.16803811
0.14689341 -0.06457057 -0.0026117484 0.068345666 -0.0802775 0.21887444 0.03423939 -0.13132872
-0.089350104 0.076348305 0.032121293 -0.30751 0.18348977 -0.4961004 -0.3324886 0.1312531
00000000: dd94 163e 8f11 d53e 5e34 e1bd 77a0 7e3e
00000010: ed43 903e ad9a 933e a8f1 42be bcdf 7c3c
00000020: 0743 e63e 1b29 91bd a826 2bbe f3c4 80bd
00000030: b27a 853d effb 2b3e a107 8e3e 7873 163e
00000040: bf08 89be 8ab7 853d 540a 71bc dd0d c4bd
00000050: ece5 73bd 1624 b63e adf1 1abd 580f 433e
00000060: 4562 2dbd 108d 56bd 117b 1dbd a109 d8be
00000070: 57a7 4dba 67c8 a63e 7f08 33be e9a8 4b3d
00000080: f248 433e c72c a93e b816 893e 7452 443d
00000090: 1ba0 1ebe d602 053e f4ee bfbc b76d 093e
000000a0: 81d9 9b3e cd49 97be 9ead 41be ac27 dd3d
000000b0: 94f0 543d 15bd 38be 2006 d2bd c39d 043e
000000c0: e4a5 6a3e 2be2 7d3e fb30 483d 7796 323e
000000d0: ea72 df3d bb57 6f3e 3b9d 0f3d 9ca8 04bd
000000e0: b18d ec3d 0823 34be 7c3f f1bd 6116 0ebd
000000f0: ed65 fb3b 99a9 973e cf50 673b c075 5a3e
00000100: 5f93 0b3e 91b4 91be 6b5b 50be 3aaf a5bd
00000110: 9bdd 5cbb a77c 8dbe e43b a13d bd88 463e
00000120: 842f 10be 80fa e33e 2b89 123c 405d c83d
00000130: 0737 abbd d7aa 383d 58c9 a5bd d86c 293e
00000140: f55a 2abd dc92 60bd 9977 793e 3fcd b33c
00000150: 71a1 a2bd 1fc3 86bd 8c99 28be 0763 89be
00000160: 5076 e8bd 72f9 3e3e 2ac2 91be 47cf 453e
00000170: 6cf1 893e d4ce 993e 3420 063e 3030 e93d
00000180: e2c3 d53d 7d0e 64be f355 91bc 3256 e93d
00000190: 665f 0e3e e307 f73e 18bc 5ebc d926 e53d
000001a0: 41ab 80be d8e7 0d3e 7b48 113d 99cd 6a3e
000001b0: 295c 403d f077 413e 1a2b b33d f0a5 b13d
000001c0: bab2 a03e 054d 093b 98bd 383e 9acf f93e
000001d0: 05aa 8c3d c440 993e 4f7f 233e 00fd d2be
000001e0: 428e 3abe fdef bdbc 60ef b3bd 13bc c33d
000001f0: dc73 95bc 3fa1 9fbd 0cd6 80bd 092c 15bd
00000200: 8029 aa3e ec12 e03e 1890 3c3e ab91 6b3c
00000210: a2fe adbd cfaf 1b3d a701 a93c e09c b23e
00000220: d1b7 8c3e d67b 42bd 225f 8f3c ad9f 7e3e
00000230: a711 013e f84d b83e 5159 be3d e58e a43c
00000240: c787 ee3e 3238 cf3e 07f2 f2bd d70e 57be
00000250: 0890 283d e90c 8e3e b1ba 17be b512 96be
00000260: d312 50be 5934 973d ba51 1f3d a4ae 84be
00000270: fe34 8a3e 02e4 80be b58f 9c3e f740 05bd
00000280: e985 a5bd 488e d9bc a46b b6bc c43c 88be
00000290: b6bb 9d3e ca25 743e 0bc0 a6be 1097 a13e
000002a0: 4073 16be a8bb 4b3e 6b3a 67be 6fc7 dd3d
000002b0: 5223 6a3e 3f62 3cbd f547 dabd f717 a7bd
000002c0: 0eed 543c 50cc 37be b0ed 12be f61d 753e
000002d0: be44 8dbd e6e2 b83c f848 b9bd 84b6 073d
000002e0: f395 333d fc7c 723e e12c 953e aa49 bc3d
000002f0: 34aa 34be 7c1b 8c3c 19be 6d3d 3dff 343c
00000300: dc9b 0fbe 52ae 8a3d d9cd babd d264 91bb
00000310: 307a a6be 3036 cb3d abd8 153d 375c 403d
00000320: f476 e43e 414f 193e 1aa1 8d3e 1a06 f63d
00000330: 470c 753e a8e5 e83e 0d79 bd3d c2b4 81be
00000340: d911 2bbe 2515 233e 587e fbbd 1f6e f7bc
00000350: 36f5 90bd 358e 493e 364b c13d 7e3e 99be
00000360: 9c65 043e e694 283e 6627 d13d 47f4 efbd
00000370: f223 2a3d 6f12 1f3b 3269 5fbe ea57 153e
00000380: 2536 d4bd 7a34 8a3e e4c1 b1bd 012d 4f3e
00000390: 8411 963d 5384 2e3e 4a07 003e eb26 e7bd
000003a0: a37f 143d f709 953d 45d5 df3e 241b 613e
000003b0: 98d2 5c3e d5a8 0cbd b541 57be 2f12 2c3e
000003c0: 3a6b 163e 933d 84bd de29 2bbb d0f8 8b3d
000003d0: 8868 a4bd 9f20 603e 9a3e 0c3d 097b 06be
000003e0: 30fd b6bd 805c 9c3d 9e91 033d f371 9dbe
000003f0: bee4 3b3e df00 febe f23b aabe 3667 063e
