AttentionNeuron/pretrained/carracing/model.npz (npz, 14934 bytes, 1 tensors)

params f4 [3667]
000000 3d 86 8f be de 0f 65 3e a3 5d f4 bd f9 fd b5 bd
       -0.28032103 0.22369334 -0.11931922 -0.08886332
000010 28 22 4a 3e 0e 14 7a 3e 8e de d9 be 3a f0 6b be
       0.19739592 0.24421713 -0.42552608 -0.23040858
000020 ca 77 41 be e6 5f 91 3e f2 64 05 3f be 63 d2 be
       -0.18893352 0.28393477 0.52107155 -0.41091722
000030 b0 51 fd 3d 45 85 72 3d 07 2f 0e 3f 8f 84 38 3e
       0.12369096 0.059209127 0.5554051 0.18019317
000040 80 a7 76 be 12 95 76 3e 29 08 ee 3d 00 81 df 3e
       -0.24087334 0.24080303 0.1162265 0.43653107
000050 dc ee 05 3f af ab 66 3e 92 68 ae be 82 cd 0f bf
       0.52317595 0.2252643 -0.34064156 -0.56172955
000060 6d ce d4 3d 5e 4c c4 bd ee c4 8c 3e 14 2a c4 be
       0.10390935 -0.095848784 0.27493995 -0.38313353
000070 c3 83 e4 bc f8 11 1f 3e 31 6a a5 3d 09 70 00 3e
       -0.02789486 0.15534198 0.08076895 0.12542738
000080 3c fb b0 bd f3 4d 8a be 3d 8a d8 3e 18 ad c8 be
       -0.08641669 -0.27012596 0.42292967 -0.3919456
000090 63 f3 61 3e 78 a7 19 3f c5 bb c5 bd 09 96 2b 3e
       0.22065501 0.6002116 -0.09654955 0.16756453
0000a0 83 58 ff 3e 54 6a ac be a3 00 c2 bd b5 9e ca 3b
       0.49872217 -0.33674872 -0.09472778 0.00618347
0000b0 18 94 87 be f9 ef b0 3e 7b 7e 3f be 54 58 c9 3d
       -0.26480174 0.34558085 -0.18700592 0.098313004
0000c0 8e 7b a1 3e 83 6d 4f be 4d 3f 21 be 0d a9 11 bf
       0.31539577 -0.20256619 -0.15746804 -0.56898576
0000d0 f4 04 fc be 8f 07 38 be 0e c9 12 3e 67 ee bb 3e
       -0.4922253 -0.17971633 0.14334509 0.36705324
0000e0 b2 7d f5 be 69 71 93 be 7f e8 76 bb 7e 27 e9 3e
       -0.4794746 -0.28797463 -0.00376752 0.45537943
0000f0 1b 42 cd bd 51 58 a8 3e 9a 3c 47 3e 8a 83 7f be
       -0.10022374 0.3287988 0.19456711 -0.24952522
000100 5e 5c d4 3b 10 de a3 be cf 18 2a 3e 46 34 9f bc
       0.0064807376 -0.32005358 0.16611026 -0.019434106
000110 57 f7 32 3f ce 22 29 be 31 da ff bd 32 e8 02 bf
       0.6990866 -0.16517183 -0.124927886 -0.5113555
000120 72 c4 52 3e 75 05 84 be 49 4b d5 be 54 8a 3b be
       0.2058275 -0.25785413 -0.41659 -0.18314487
000130 65 12 ba 3d a4 d9 ba be 6a 74 33 be b6 76 08 bf
       0.0908554 -0.36494172 -0.17524877 -0.5330614
000140 e8 b2 19 bf bf c7 fd 3e 73 bb a9 3d 04 3e d6 bd
       -0.60038614 0.49566457 0.08287706 -0.10461047
000150 b6 5f 0e 3e ac 02 3f be 00 76 f0 3d ea b3 92 3c
       0.13903698 -0.18653363 0.11741257 0.017908055
000160 c8 7e 26 3e 9a 54 8f bd 9d 9c 01 bf 44 4e 06 bf
       0.162593 -0.06998558 -0.506296 -0.52463174
000170 ca 55 4e bd 18 5d 4e be 80 c9 05 bf 49 db 1b be
       -0.050374784 -0.201527 -0.5226059 -0.1522037
000180 96 c1 1b bf c5 ca 62 3e 92 95 f6 bd 78 47 93 bb
       -0.60842264 0.22147663 -0.12040247 -0.0044946037
000190 05 72 d1 3c 73 e2 a6 be cf b6 45 3f 89 b5 fb 3e
       0.025567064 -0.32594642 0.7723207 0.49161938
0001a0 e0 e7 cc be 16 35 18 3f dd 31 52 be 9f a6 6f be
       -0.40020657 0.59456 -0.20526834 -0.23403405
0001b0 8e ac 62 bd a8 7b 57 be c6 55 fd 3d 78 f1 bf 3e
       -0.055340342 -0.21043265 0.123698756 0.37488914
0001c0 fa 6d 3c 3e e0 57 a3 bc 8e 32 40 3e 4f 49 97 be
       0.18401328 -0.019939363 0.18769285 -0.29548118
0001d0 91 48 90 3e 57 74 aa be f2 b0 35 be 15 df 9f be
       0.28180364 -0.33291885 -0.1774328 -0.31224886
0001e0 52 c2 65 3e 8c 29 c2 3d 24 64 98 3c e6 ad 6f 3d
       0.22437409 0.09480581 0.018602438 0.05851545
0001f0 40 31 3e bf bd ae d6 3d 10 6a 06 bf b8 46 01 3e
       -0.742939 0.104825474 -0.5250559 0.12624633
000200 c1 45 a1 3e f5 42 8d be ab 0b 36 bf 86 15 a9 3d
       0.3149853 -0.27590147 -0.71111554 0.082560584
000210 83 4b 80 be 9c 72 54 be 27 1a 54 3d 28 8f 8f bd
       -0.2505761 -0.20746845 0.051782753 -0.07009727
000220 77 b6 84 3e bb 18 f1 3d e9 58 76 bd 28 7f d0 3e
       0.2592046 0.11772295 -0.060143385 0.40722013
000230 7f 22 2a 3e e4 cd 03 3f 0b 30 99 3e b4 70 b9 3e
       0.16614722 0.5148604 0.29919466 0.36218798
000240 62 13 e7 3e 13 b3 ef 3d 36 98 a5 be 4a fd 14 3f
       0.45131975 0.117040776 -0.3234269 0.5819899
000250 56 32 07 3f 5c 28 42 3c da 78 8c 3e 31 a6 b0 3e
       0.5281118 0.011850443 0.27435952 0.34501794
000260 50 f1 57 bb ce a1 b6 3d 2e b1 15 3e c8 ea 8b 3d
       -0.003295023 0.089175805 0.1461837 0.0683189
000270 e4 68 3e 3e f6 de 0d 3e c6 70 8b 3e 38 83 2d be
       0.185947 0.13854584 0.27234477 -0.16944587
000280 33 5a 6d 3e a4 53 65 be 01 a3 17 bf b8 ac 66 be
       0.2317894 -0.22395188 -0.592331 -0.22526824
000290 5c af 3e 3e e0 e7 22 3e 63 4e d1 3e 82 86 b4 be
       0.18621582 0.15908766 0.40880117 -0.3525887
0002a0 e5 cb 82 3e f9 ed 9a be 9b cb 5c bf 47 1d 98 bd
       0.25546184 -0.30259684 -0.8624818 -0.07427459
0002b0 8b 1e 5b bf 26 94 67 3e 8d 12 f9 3e 36 ca cc 3e
       -0.8559348 0.22615108 0.48646966 0.39998025
0002c0 86 57 7f be b1 69 dc 3d 04 e6 41 bf 99 19 b6 be
       -0.24935731 0.107623465 -0.757416 -0.35566404
0002d0 78 d4 71 bd f3 4b 54 3e 65 30 71 bd c2 f4 64 3d
       -0.059040517 0.20732097 -0.058884043 0.05589748
0002e0 56 d9 1f bf 3e 02 b3 3d 02 ea d6 bd d7 cb e3 3e
       -0.62441003 0.08740662 -0.10493852 0.44491455
0002f0 fe 07 7b 3e 8f f0 2a be 9d 2d 0d bd 26 e8 91 be
       0.24514768 -0.16693328 -0.03446733 -0.28497428
000300 6c da 42 bc 77 83 5f 3e 1f b7 fb 3e b9 21 05 be
       -0.011892896 0.21827494 0.49163148 -0.13001145
000310 00 d9 66 3e 75 df 3b 3e 18 64 f5 3d 50 e2 4f 3e
       0.22543716 0.18346961 0.11981982 0.20301175
000320 df 7b 4e bd 3b 44 8e 3e 10 3d b8 3e a5 08 0e bd
       -0.0504111 0.2778643 0.35984087 -0.034676213
000330 2e 13 0e 3e b4 9c 49 3e e9 48 66 3e 61 67 06 3e
       0.13874504 0.19688684 0.2248875 0.13125373
000340 4e 7f d3 be 37 c1 76 be 5c 43 25 3e cf b5 3a be
       -0.41308063 -0.24097143 0.16138977 -0.18233417
000350 dc f5 00 bf 10 9b d4 3e 65 47 c8 3e 99 53 8d be
       -0.5037515 0.41524553 0.3911697 -0.27602842
000360 03 c4 09 bd 16 9d 91 3d d2 df 14 bd 8f 24 d3 3c
       -0.033634197 0.0711004 -0.036346264 0.025774268
000370 50 53 56 be 42 39 b0 3d 11 e1 aa 3e 05 df cc 3b
       -0.20930219 0.08604671 0.33374837 0.006252172
000380 36 c6 87 3e c4 b6 3d 3f b8 1e 5e 3e 45 6a 11 3e
       0.2651841 0.74107003 0.21691406 0.14200695
000390 60 8f a1 be 25 66 00 3e bb 27 28 be a2 bd 98 be
       -0.315547 0.12538965 -0.16421406 -0.29832178
0003a0 8f 10 17 be 82 d9 d4 3e 5f d1 d2 be 2a b0 d5 be
       -0.1475241 0.41572195 -0.41175362 -0.41735965
0003b0 33 c3 f5 be 9f 40 12 be ec 17 9d be f5 fe 98 be
       -0.48000488 -0.14282463 -0.30682313 -0.29882017
0003c0 50 20 10 be 7a 40 01 3e 21 cc c2 3e 6b 32 81 bd
       -0.14074826 0.12622252 0.38046363 -0.063084446
0003d0 22 56 90 3e 21 bd 93 3e 70 02 45 3e 2d ea f3 bd
       0.28190714 0.2885523 0.19239211 -0.119099
0003e0 ed 0e b3 bc 8c d3 43 3c 4e 3e 02 bf 62 17 52 be
       -0.021857703 0.011952292 -0.5087632 -0.20516732
0003f0 9e 3e 82 3d 30 1b 1b 3f bb f0 c4 be de 53 a7 be
       0.063595995 0.6058836 -0.38464913 -0.32681173
