AttentionNeuron/pretrained/cartpole_pi/model.npz (npz, 3918 bytes, 1 tensors)

params f4 [913]
0	0x3eac24d0	0.33621836
1	0xbd95b3d4	-0.0730969
2	0x3f59a568	0.85018015
3	0xbfe3f997	-1.7810544
4	0x40310635	2.7660038
5	0xbf6c99f8	-0.9242244
6	0x4010b359	2.2609465
7	0xbfe2ad39	-1.7709113
8	0x4015079e	2.32859
9	0x3fd6f0bc	1.6792216
10	0xbfd66069	-1.6748172
11	0x3f1532fd	0.58280927
12	0x3fe952d2	1.82284
13	0x3f3daa27	0.74087757
14	0x3f72a484	0.9478228
15	0x3ea55b23	0.32296094
16	0xbfc4b7ed	-1.536863
17	0x3e24d8e4	0.16098362
18	0x3ed27847	0.4110739
19	0xc01bbf55	-2.433553
20	0xbf742d70	-0.9538183
21	0x3ec53cc3	0.3852292
22	0x3fd0f8fe	1.6325986
23	0x3ec61939	0.38691118
24	0x3f81f221	1.0152017
25	0xbfd6876b	-1.6760076
26	0xc0078131	-2.1172602
27	0x3f275b4b	0.65373677
28	0x3fb9deeb	1.4521154
29	0x40063aee	2.0973468
30	0x3fa33e62	1.2753413
31	0x3fd90a30	1.6956234
32	0xbd052210	-0.032503188
33	0xc0014160	-2.0196152
34	0xbf745e34	-0.9545624
35	0xbfe30f8b	-1.7739118
36	0x3fbd6807	1.4797372
37	0xbf7df5fd	-0.99203473
38	0x3f4ba8fb	0.7955472
39	0xc039ef4c	-2.9052305
40	0x3faa8f0d	1.3324906
41	0xbfbf63f3	-1.4952377
42	0xbf4340bb	-0.76270646
43	0xbf1be1f0	-0.6089163
44	0x3f62ea3c	0.88638663
45	0x402fb71e	2.7455516
46	0x3e9a43f4	0.3012997
47	0xbe4bf593	-0.19917898
48	0xbfb960f5	-1.4482714
49	0xbf25c63f	-0.64755625
50	0xbf100440	-0.56256485
51	0x3e9032f3	0.2816387
52	0xbf1a0df6	-0.6017755
53	0xbf17add6	-0.5924963
54	0xbf6d17f7	-0.9261469
55	0x3e069cfc	0.13145822
56	0xbfa27513	-1.2691978
57	0x3f16f180	0.5896225
58	0x3fafac53	1.3724464
59	0xbfc4c683	-1.5373081
60	0xc06cdbb6	-3.70091
61	0xbd4dc6ef	-0.050238546
62	0xbf8d4899	-1.103778
63	0xbe82bed3	-0.25536212
64	0x3f228581	0.6348496
65	0xc02f871d	-2.7426217
66	0xbfc85a62	-1.5652583
67	0xbe572ce9	-0.21013226
68	0xbfc7b07b	-1.5600733
69	0x3e596017	0.21228062
70	0x3d2e18b8	0.042504042
71	0x40329a3b	2.7906635
72	0x3f69000f	0.91015714
73	0xbf4371ed	-0.7634571
74	0x3f532639	0.824802
75	0x3eb3704d	0.35046616
76	0x3fa43ddf	1.2831382
77	0x3e2fe5b3	0.17177467
78	0xbf277f4b	-0.6542861
79	0x3f47361e	0.7781695
80	0x3e090610	0.13381219
81	0xbe9fd11a	-0.3121422
82	0xbfa85488	-1.3150797
83	0x3f9374b0	1.1519985
84	0x3eaf96c5	0.34294716
85	0xbdbdb78b	-0.09263524
86	0xbf76d1aa	-0.9641367
87	0x3ebfe4ba	0.37479192
88	0x3f18b022	0.5964376
89	0xbfa9ff1d	-1.3280979
90	0x4024f951	2.577717
91	0x3ea81da8	0.32835126
92	0x3eb645d9	0.35600165
93	0xbfc1241e	-1.5089147
94	0xbe6cffa9	-0.23144402
95	0x3eb67f9f	0.35644242
96	0x3fcbd1a2	1.592335
97	0x3f7b6ffc	0.9821775
98	0x3d455139	0.048173163
99	0x3f5d2f22	0.86400044
100	0x3f86af65	1.0522276
101	0x3f777f1a	0.96678317
102	0xbddc827b	-0.10767075
103	0xbe8078e1	-0.25092223
104	0x400402cd	2.062671
105	0x3edb3cfe	0.4281997
106	0x3fd82495	1.6886164
107	0x3e2f736c	0.17133874
108	0xbf8bb0bc	-1.091331
109	0x3c95552a	0.018229086
110	0xbf51b3ef	-0.8191518
111	0xbf1a2363	-0.60210246
112	0x3faa8b2e	1.3323724
113	0x3f6864ec	0.90778995
114	0x3f63d2be	0.8899344
115	0xbf8e2335	-1.1104494
116	0x3d731346	0.059344552
117	0xbfbdc5ea	-1.4826024
118	0xbe2519f7	-0.16123186
119	0xbef1c686	-0.47221774
120	0x4017a6af	2.3695486
121	0xbf4f6f2e	-0.8102902
122	0x3fdd76f0	1.7301922
123	0xbfc43b56	-1.5330608
124	0xbf691762	-0.91051304
125	0x3f9b0417	1.2110623
126	0x40265243	2.5987709
127	0x3f33023d	0.6992529
128	0xbf56bbd6	-0.83880365
129	0x3fac60c9	1.3467036
130	0xbf1f28a7	-0.62171406
131	0xbf82eccb	-1.0228513
132	0x3fd6fb5e	1.6795461
133	0x3f45aacf	0.7721376
134	0x3f18b0bd	0.5964468
135	0xbd94f13c	-0.07272574
136	0xc032c78b	-2.7934291
137	0x401c40bb	2.4414508
138	0x3db9d3ab	0.090735756
139	0x3f3a7ba4	0.7284491
140	0x3f8e4a33	1.1116394
141	0xbf2825f6	-0.65682924
142	0xbfa745e7	-1.3068208
143	0xbfdc8fa5	-1.7231337
144	0xbe4a1ae1	-0.19736816
145	0xbf261339	-0.6487308
146	0xbe8f5210	-0.27992296
147	0x3f12d26e	0.5735234
148	0x3f2ddc10	0.67913914
149	0x3ee6ec3f	0.45102116
150	0xbf8b33a5	-1.0875136
151	0xbdb9ac3a	-0.09066053
152	0x3f2b0fed	0.66821176
153	0x3e694a38	0.22782218
154	0x3fc3b274	1.5288835
155	0xbde58a4b	-0.11208018
156	0x3dc06ca5	0.09395722
157	0xbf8c2ebb	-1.0951761
158	0xbfb697cc	-1.4265075
159	0x401a290b	2.408755
160	0x3eaea509	0.34110287
161	0xbfa28713	-1.2697471
162	0xbf2a977b	-0.6663739
163	0xc02a19bc	-2.6578207
164	0x400c5173	2.1924713
165	0x3eeadb3f	0.45870396
166	0xbeea1dae	-0.4572577
167	0xbf179407	-0.59210247
168	0xbed24bba	-0.410734
169	0x3f72b046	0.9480022
170	0x3dcc56dd	0.09977505
171	0xbf83f1f9	-1.0308219
172	0xbfcdfd36	-1.6092899
173	0xbf91dc45	-1.1395346
174	0xbf966289	-1.174882
175	0xbe27bfff	-0.16381834
176	0x3fe4286f	1.7824839
177	0x3eb3f5df	0.35148522
178	0x3fa16148	1.2607813
179	0xbfb3c456	-1.4044292
180	0xbdd33e77	-0.103146486
181	0x3fbc9c4f	1.4735202
182	0x3f24861c	0.64267135
183	0x401be052	2.4355664
184	0xbf90522f	-1.127508
185	0xbfb0fc09	-1.3826915
186	0x3fb43995	1.4080073
187	0x3f82636b	1.018659
188	0xbebb5712	-0.36589867
189	0x3fd6a5bd	1.6769329
190	0xbb1cdab3	-0.0023934066
191	0x3f84f69b	1.0387758
192	0xbf6f83c2	-0.9356042
193	0xc01c218f	-2.4395483
194	0x3fa32ed7	1.2748669
195	0xbeb3c767	-0.3511307
196	0xbf354d9e	-0.7082156
197	0x3f7bb810	0.9832773
198	0x3ed0c99a	0.4077881
199	0xbf5ad343	-0.8547861
200	0xbf98cf7c	-1.1938319
201	0x4000aaa3	2.0104148
202	0xbeea638d	-0.45779076
203	0x3e93a02e	0.28833145
204	0xbe88c9a5	-0.26716343
205	0x3f013fd6	0.5048803
206	0x3ecb1905	0.39667526
207	0x3d97b5be	0.074077114
208	0xbf671b00	-0.90275574
209	0x3fb3b0f6	1.4038379
210	0x3eea4c4c	0.45761335
211	0xbf49b861	-0.78796965
212	0xbf80c0c5	-1.0058829
213	0xbee6ddf6	-0.45091218
214	0x3cffe2d6	0.031236093
215	0xbf319381	-0.693657
216	0xbffb9234	-1.9653993
217	0x3f38d648	0.7220197
218	0xc0053c51	-2.0818064
219	0xbd82f0ce	-0.06393586
220	0x3efcf038	0.49402022
221	0x3ff88123	1.9414409
222	0x3f2298ce	0.6351441
223	0x3eb851a3	0.35999784
224	0xc006870f	-2.1019933
225	0x3f857fc3	1.0429615
226	0xbe881bbc	-0.2658366
227	0xbf9bf1e8	-1.2183199
228	0x40659721	3.5873492
229	0x3fa1058c	1.2579818
230	0xbfd96b06	-1.6985786
231	0x3ee030c3	0.43787202
232	0x3f143405	0.57891876
233	0x4003bd69	2.0584357
234	0xbf539e15	-0.8266309
235	0xbf0b03b0	-0.543025
236	0x3fc13749	1.5094997
237	0x3f88bfb0	1.0683498
238	0xbf99a58d	-1.2003647
239	0x3f9dd4b6	1.2330539
240	0x3fd6de74	1.6786637
241	0xbf8845e4	-1.0646329
242	0xbfaa2cf4	-1.3294969
243	0xbf07f915	-0.53114444
244	0xbf49a357	-0.7876486
245	0x3e81c33a	0.2534426
246	0xbf94d9b7	-1.1628941
247	0x3eb104eb	0.34574065
248	0xbefcb952	-0.49360138
249	0x3f831008	1.0239267
250	0xbecf6349	-0.40505436
251	0xbef7a996	-0.4837157
252	0xbf904222	-1.1270182
253	0x3fb5bd62	1.419842
254	0x3fd3251b	1.6495699
255	0x3f822392	1.0167105
