AttentionNeuron/pretrained/ant_pi/model.npz (npz, 10282 bytes, 1 tensors)

params f4 [2504]
0	0x3f870b1f	1.0550269
1	0x3eb0acca	0.34506828
2	0xbef0689d	-0.46954814
3	0x3eb3179a	0.34978944
4	0xbefc6d11	-0.4930196
5	0xbfd1f061	-1.6401483
6	0xbebf54dc	-0.3736943
7	0x3eefc242	0.46827894
8	0x3ee88c1f	0.45419404
9	0x3f0d333d	0.5515631
10	0xbece2019	-0.40258864
11	0x3d7a759b	0.061147314
12	0x3e0ba3e8	0.13636744
13	0x3f57f263	0.8435423
14	0x3f742791	0.95372874
15	0x3cd477f2	0.0259361
16	0xbe68f52a	-0.22749773
17	0x3f9db4b4	1.2320771
18	0xbebce52d	-0.36893597
19	0xbf780741	-0.9688607
20	0xbf6d8cf4	-0.927932
21	0xbf26cb87	-0.6515431
22	0x3f6aa6d4	0.9166081
23	0x3f8c1fd5	1.0947214
24	0xbee7e2e5	-0.45290294
25	0xbf33591a	-0.70057833
26	0xbf4e009b	-0.80469674
27	0x3f2aa474	0.66657186
28	0x3f6166ec	0.8804767
29	0xbe1f1f67	-0.15539323
30	0x3f32ae43	0.6979715
31	0x3e7bdb33	0.24595337
32	0x3ed8cb76	0.42342728
33	0xbd53b652	-0.051687546
34	0x3e30fae8	0.17283213
35	0x3e129f3d	0.14318557
36	0xbf1ff33f	-0.6248054
37	0xbf1e54c1	-0.61848074
38	0xbe210b96	-0.15727076
39	0xbef55824	-0.47918808
40	0x3e39eced	0.18156786
41	0x3fd03fc3	1.6269459
42	0x3f97353b	1.181312
43	0x3f81da81	1.0144807
44	0x3e8336b5	0.25627676
45	0xbf31521f	-0.6926593
46	0x3f01c4b7	0.5069079
47	0x3f6458ba	0.89197886
48	0xbfb1f588	-1.3903055
49	0xbf2f3362	-0.6843778
50	0x3f3e5b83	0.74358386
51	0xbf821ee2	-1.0165675
52	0x3e7ba0c6	0.24573049
53	0xbf8a63b7	-1.081168
54	0xbfcacbf5	-1.5843493
55	0xbf09c587	-0.5381703
56	0x3f6c95a4	0.92415833
57	0x3f8701b9	1.0547401
58	0x3e6f89d8	0.23392427
59	0x3e26db58	0.1629461
60	0x3e4a2fcf	0.197448
61	0xbf1360bb	-0.57569474
62	0x3d731689	0.059347663
63	0xbf8878c0	-1.066185
64	0xbf8bfc30	-1.0936337
65	0xbdb9c3e0	-0.09070563
66	0xbffc557c	-1.9713588
67	0x3fbf7a9f	1.4959296
68	0xbee2e4c1	-0.4431515
69	0xbe3df889	-0.1855184
70	0xbe4e8613	-0.20168333
71	0x3f6958d8	0.9115119
72	0xbdd725e7	-0.10505276
73	0xbecd2315	-0.40065828
74	0x3f84b9af	1.0369166
75	0xbf143e32	-0.579074
76	0x3f35784f	0.708867
77	0xbf8d52e3	-1.104092
78	0x3d7e2b6c	0.06205313
79	0xbd98bd57	-0.07457989
80	0x3e821ca1	0.25412467
81	0x3f2c1163	0.6721403
82	0x3f144615	0.57919437
83	0x3dbdd790	0.09269631
84	0x3f6da6d3	0.9283268
85	0xbee2c0c2	-0.44287688
86	0xbf4344d9	-0.7627693
87	0xbe497d35	-0.19676669
88	0xbeb32c62	-0.349948
89	0xbf063874	-0.5242989
90	0x3e229ba8	0.1587969
91	0x3e9eaba7	0.30990335
92	0xbf64bf68	-0.8935456
93	0x3f0c473b	0.5479619
94	0xbc0ccc01	-0.00859356
95	0x3efe9e1f	0.49730012
96	0x3ff59c32	1.9188292
97	0x3b8c43a5	0.004280525
98	0xbf2ec719	-0.6827255
99	0x3f9207cd	1.1408631
100	0x3e48d691	0.196131
101	0xbe5d7b8f	-0.21629165
102	0xbdbebddd	-0.09313557
103	0xbdd9f777	-0.10642903
104	0x3e6928c5	0.22769459
105	0xbdb57c31	-0.08861578
106	0xbf89860d	-1.0744034
107	0xbf8746ed	-1.056852
108	0x3fcb691a	1.589145
109	0xbfd2f1f1	-1.6480085
110	0x3fb239e5	1.3923918
111	0xbe9dfe86	-0.30858248
112	0x3f0b6359	0.5444847
113	0xbed29fec	-0.41137636
114	0xbe864ee5	-0.26232067
115	0xbf10863b	-0.5645482
116	0x3f31cfe8	0.69457865
117	0x3f41ed8d	0.757531
118	0xbd2dbd93	-0.04241712
119	0x3fb233ed	1.3922096
120	0xbf14aa0f	-0.5807199
121	0x3f53a58a	0.8267447
122	0x3fbbac53	1.4661964
123	0x3f98b492	1.1930106
124	0x3f427994	0.75966763
125	0xbefe1c46	-0.49630946
126	0x3ede0ca8	0.4336903
127	0x3f12e117	0.5737471
128	0x3d55741d	0.052112687
129	0xbdf97306	-0.12180142
130	0x3fb6f369	1.4293033
131	0xbdcb2883	-0.09919836
132	0x3f061024	0.5236838
133	0xbe895bb3	-0.26827773
134	0x3ec3c94b	0.38239512
135	0x3d9af64c	0.07566509
136	0xbc042129	-0.008064547
137	0x3dfa6164	0.12225607
138	0xbe7f59cb	-0.24936597
139	0x3eff289d	0.49835673
140	0xbf8399fc	-1.0281367
141	0xbf44aede	-0.76829326
142	0x3f1eeae7	0.6207718
143	0x3faf138f	1.3677844
144	0x3ea3734e	0.31923908
145	0x3f31c5ae	0.6944226
146	0xbf9b2158	-1.2119551
147	0x3ead901b	0.33899006
148	0x3caeee79	0.021353947
149	0xbe4528cc	-0.19253844
150	0x3ee5592f	0.44794604
151	0x3eb87acd	0.3603119
152	0x3ffe1600	1.9850464
153	0xbf908c70	-1.1292858
154	0x3f226ba6	0.6344551
155	0x3faf65c8	1.3702936
156	0x3d82db52	0.06389488
157	0xbe0f352c	-0.13985127
158	0xbc221008	-0.009891517
159	0xbea337aa	-0.31878406
160	0x3f6911fc	0.91043067
161	0xbf1bd512	-0.60871994
162	0x3d166648	0.036718637
163	0xbf15133c	-0.58232474
164	0x3e45cc38	0.19316185
165	0x3fc70758	1.5549116
166	0xbe8c8090	-0.27441835
167	0x3f958bea	1.1683323
168	0x3f2ea8f5	0.6822656
169	0xbe69a1fb	-0.22815697
170	0xbf2528a0	-0.64515114
171	0xbde713e3	-0.1128309
172	0xbebf5072	-0.37366062
173	0x3e378583	0.17922024
174	0x3f3f8cd8	0.74824286
175	0x3e9a2c1e	0.30111784
176	0x3ee9f8b7	0.45697567
177	0xbe9b062f	-0.30278155
178	0xbefccd1f	-0.49375245
179	0xbeda576c	-0.42644823
180	0xbdb12d48	-0.08651215
181	0xbe40533e	-0.18781754
182	0xbfa1750f	-1.2613848
183	0x3d4ab29c	0.04948674
184	0x3f463450	0.7742357
185	0xbf9f7459	-1.2457381
186	0x3b40f009	0.0029439947
187	0xbe91f608	-0.2850802
188	0x3f1a2aab	0.60221356
189	0xc0065b41	-2.0993197
190	0x3f41f3a9	0.7576242
191	0x3e2f7cab	0.17137401
192	0x3fb8e589	1.4445049
193	0xbeb88457	-0.36038467
194	0xbeffeeb7	-0.49986812
195	0xbe135c02	-0.14390567
196	0x3e58318f	0.21112655
197	0x3dea9c65	0.11455611
198	0x3f84c15a	1.0371506
199	0x3f218a90	0.63102055
200	0x3ef7369a	0.48283845
201	0x3eba63ea	0.36404353
202	0x3e608a87	0.21927844
203	0xbe4b82f2	-0.1987417
204	0xbd1074af	-0.03526753
205	0x3f013476	0.50470674
206	0x3f890bd6	1.0706737
207	0xbf0b7acc	-0.5448425
208	0x3fdccba4	1.7249646
209	0x3eaa03c1	0.3320599
210	0x3f77d920	0.9681568
211	0x3f37052b	0.7149226
212	0x3d0309ca	0.031991757
213	0x3f173c0c	0.59076
214	0x3eeeeb4a	0.46663886
215	0xbdc4dc21	-0.09612299
216	0xbf06274a	-0.524037
217	0x3dd3589d	0.10319636
218	0xbe8ecdd4	-0.2789141
219	0xbc3fd86e	-0.011709316
220	0xbebad748	-0.36492372
221	0x3fdbb0fc	1.7163386
222	0xbf0196d1	-0.5062075
223	0xbf67fc8a	-0.9061972
224	0x3fba1ba0	1.453968
225	0x3f5f11c0	0.8713646
226	0xbf999ee8	-1.2001619
227	0x3facf168	1.3511171
228	0xbd6009a4	-0.054696694
229	0x3e31ba2b	0.17356174
230	0x3ebe609f	0.3718309
231	0x3e8b8b7d	0.2725486
232	0x3f0eac57	0.5573172
233	0xbf31ddc9	-0.6947904
234	0xbe310022	-0.17285207
235	0xbeb99b06	-0.36251086
236	0x3f3c98ae	0.7367047
237	0xbb3191d2	-0.0027094972
238	0xbe52c2bc	-0.20582098
239	0xbf9945c7	-1.1974419
240	0xbf8851a0	-1.064991
241	0xbe6bc292	-0.23023441
242	0xbf3cc1ab	-0.73733014
243	0xbdc46541	-0.09589625
244	0xbe5e77cd	-0.21725388
245	0x3e1a4b2a	0.15067735
246	0xbf7d855c	-0.99031615
247	0x3f40f04b	0.7536666
248	0x3ea95bb4	0.33077776
249	0xbed490d8	-0.41516757
250	0x3e92d66a	0.2867921
251	0xbd8b5ddf	-0.06805014
252	0xbd992df7	-0.0747947
253	0x3f0f5c8b	0.56000584
254	0xbe75fbe6	-0.24021873
255	0x3ec09d3e	0.37619966
