AttentionNeuron/pretrained/carracing_pi/model.npz (npz, 29114 bytes, 1 tensors)

params f4 [7212]
0	0x3cf33e18	0.029692695
1	0x3f1fe29c	0.62455153
2	0xbe1e2b84	-0.15446287
3	0x3e4ce57d	0.20009418
4	0xbea74b0b	-0.3267444
5	0xbcb7498c	-0.022373937
6	0xbe902a49	-0.2815726
7	0xbf5c7220	-0.8611164
8	0xbeadd934	-0.33954775
9	0x3f34697b	0.7047345
10	0x3e25eb89	0.16203131
11	0x3ea619ff	0.32441708
12	0x3f24dc06	0.6439823
13	0x3e266b31	0.16251828
14	0xbfad0c41	-1.3519365
15	0x3dea8360	0.11450839
16	0x3ed82f78	0.42223716
17	0x3e81b76a	0.25335246
18	0xbf163985	-0.5868152
19	0x3ed16ae7	0.40901873
20	0xbeae70f5	-0.34070554
21	0xbe9a5726	-0.30144614
22	0xc0190a0d	-2.3912385
23	0x3f5e052b	0.86726636
24	0x3ee985de	0.45609945
25	0xbe61b54f	-0.2204182
26	0x3ea1c67a	0.31596738
27	0x3e278621	0.1635976
28	0xbef2b3d2	-0.47402817
29	0xbf494308	-0.78617907
30	0x3f3bfabc	0.73429465
31	0xbedd036c	-0.43166673
32	0x3cfd7005	0.030937204
33	0xbec3dc3f	-0.38253972
34	0xbeaa7f2b	-0.33300146
35	0x3dec3db7	0.11535209
36	0xbee03276	-0.437885
37	0xbe919369	-0.28432778
38	0x3f95c862	1.1701777
39	0x3f0799e5	0.529692
40	0x3f3f5d3b	0.74751633
41	0x3b426972	0.00296649
42	0x3f89492e	1.0725458
43	0x3e872997	0.26398918
44	0x3f350032	0.70703423
45	0x3ec79659	0.38981894
46	0x3ea9f721	0.33196357
47	0xbec34848	-0.38141084
48	0x3ee838e0	0.45355892
49	0xbe2a7ddf	-0.16649579
50	0x3eaaa896	0.33331746
51	0x3e804bdb	0.25057873
52	0xbebc056b	-0.36722884
53	0x3ec15b07	0.3776476
54	0x3ed39403	0.4132386
55	0xbd67b800	-0.05657196
56	0x3ca2e7a0	0.019885838
57	0xbe3d59cb	-0.18491285
58	0xbf442596	-0.7661985
59	0x3e54c477	0.2077807
60	0xbf030e95	-0.51194125
61	0xbe8b0b96	-0.27157277
62	0xbea103d8	-0.31448245
63	0x3db6af12	0.08920111
64	0xbf467347	-0.7751965
65	0x3efc3988	0.49262643
66	0x3f16c61e	0.5889605
67	0xbf10c53d	-0.5655096
68	0x3f54c8f3	0.83119124
69	0x3eefa18c	0.46802938
70	0xbf11580f	-0.5677499
71	0x3d2af9e0	0.041742206
72	0xbd5b3a40	-0.05352235
73	0x3e45b3d7	0.19306885
74	0x3f5fddf5	0.87448055
75	0x3c33d927	0.010977066
76	0xbe337ed7	-0.17528854
77	0x3d067c75	0.032833535
78	0xbf459b59	-0.77190167
79	0x3f89d9f1	1.0769635
80	0xbe1e9de3	-0.15489917
81	0x3f52e6ab	0.8238322
82	0x3d46815b	0.048463207
83	0x3cad2c78	0.021139368
84	0xbf47c63f	-0.78036875
85	0xbcee1da5	-0.02906687
86	0x3f9d8318	1.2305632
87	0x3e094d57	0.13408409
88	0xbf1b316e	-0.606223
89	0x3f5afa7c	0.8553846
90	0x3e01182e	0.1260688
91	0x3f2ffeec	0.68748355
92	0xbf223736	-0.63365495
93	0xbdd37934	-0.10325852
94	0xbf4fe575	-0.812095
95	0x3d969598	0.073527515
96	0x3f27c732	0.6553832
97	0xbf14ae6b	-0.5807864
98	0xbd8b12ac	-0.06790671
99	0x3e02428f	0.12720703
100	0x3e83e0cb	0.2575744
101	0x3cc0b67f	0.02352452
102	0xbf03fefa	-0.5156094
103	0x3f84d869	1.0378543
104	0x3ce09a2d	0.027417267
105	0xbef804c2	-0.4844113
106	0x3e87ecf5	0.2654797
107	0x3e93c0fc	0.28858173
108	0xbf2dd4b3	-0.6790268
109	0xbd8188b1	-0.063249
110	0xbf27aa0d	-0.6549385
111	0x3f89bea6	1.0761306
112	0x3ecbc8bb	0.39801583
113	0x3e4f3f11	0.20238902
114	0xbe95625f	-0.29176614
115	0x3f0d24c5	0.5513423
116	0x3ebed828	0.3727429
117	0x3ee77a1c	0.4521035
118	0x3dc3b252	0.09555496
119	0xbf80f4c5	-1.0074698
120	0x3ee3955a	0.44449884
121	0xbf6a7f78	-0.9160075
122	0xbf18e31e	-0.59721553
123	0x3f173940	0.5907173
124	0x3e7e800e	0.24853536
125	0x3e18871c	0.1489529
126	0xbf2d34b9	-0.67658573
127	0x3f40f0f6	0.7536768
128	0xbe89d3df	-0.26919457
129	0x3dc973ac	0.09836516
130	0xbd883b4d	-0.06651936
131	0xbd7a01ac	-0.06103675
132	0xbf68ecb4	-0.9098618
133	0x3f0f67ed	0.56017953
134	0xbe5f45e0	-0.21803999
135	0xbe448360	-0.1919074
136	0x3d2abc35	0.041683394
137	0xbf34cab0	-0.70621777
138	0xbe8059c0	-0.25068474
139	0xbe6a7fec	-0.22900361
140	0xbf40f8ac	-0.75379443
141	0xbe47d0b6	-0.1951321
142	0x3ea4c4fc	0.32181537
143	0xbfa521a2	-1.2900889
144	0xbee5e12a	-0.4489835
145	0xbf102e27	-0.5632042
146	0xbf41b4de	-0.75666606
147	0x3f73e6ae	0.95273864
148	0x3e49c9b1	0.19705845
149	0x3f09b6a9	0.5379434
150	0x3f2d7e3f	0.6777076
151	0xbf2fa4d9	-0.6861091
152	0xbeb814d6	-0.35953397
153	0xbe3e05d3	-0.1855691
154	0xbf09cf8c	-0.53832316
155	0x3f14f6dd	0.58189183
156	0x3f6a6f89	0.9157644
157	0xbe9c85cc	-0.3057083
158	0x3e998779	0.2998617
159	0xbf49eae7	-0.7887406
160	0x3e6d6b86	0.23185548
161	0x3ecae485	0.39627472
162	0xbf5430fa	-0.8288723
163	0xbe29afdb	-0.1657099
164	0xbe9f4792	-0.3110929
165	0xbefd19ed	-0.49433842
166	0xbe09fbd3	-0.1347497
167	0xbf315c9c	-0.69281936
168	0x3ecfe973	0.40607795
169	0x3f597671	0.8494635
170	0xbeb3c723	-0.35112867
171	0x3efa8c96	0.48935384
172	0xbccee194	-0.025254048
173	0x3e98d8f5	0.29853025
174	0x3da31d27	0.07964545
175	0xbf4c7eba	-0.7988087
176	0xbdcfdf0b	-0.10149964
177	0x3df95d7b	0.12176033
178	0x3f4703eb	0.77740353
179	0x3f1018fc	0.56288123
180	0xbd1c39c9	-0.038141046
181	0x3da1643f	0.078804485
182	0xbfa27625	-1.2692305
183	0x3e866a68	0.26253057
184	0xbf33dffa	-0.70263636
185	0x3db446df	0.0880258
186	0x3d04c4c9	0.03241423
187	0xbd797021	-0.06089795
188	0xbdfc4b61	-0.12319065
189	0xbe786f7a	-0.24261275
190	0xbf030e27	-0.5119347
191	0xbf58b8fb	-0.8465726
192	0xbf000eba	-0.5002247
193	0x3f144da2	0.5793096
194	0x3e8676d6	0.2626254
195	0x3ef9f883	0.48822412
196	0xbec31eba	-0.3810938
197	0xbc39545b	-0.011311616
198	0x3c140a5f	0.009035676
199	0x3e2fcfc6	0.17169103
200	0x3e9aa18a	0.3020137
201	0x3e2d2e91	0.16912295
202	0x3dca8a82	0.098896995
203	0xbf152326	-0.5825676
204	0x3ef10bdb	0.47079358
205	0xbeb92351	-0.36159757
206	0xbfebab68	-1.8411684
207	0xbf56cc80	-0.8390579
208	0x3eb8db97	0.36105034
209	0xbefc92c4	-0.49330723
210	0x3f86ad9d	1.0521733
211	0xbf977f5c	-1.1835742
212	0xbf62ad26	-0.88545454
213	0xbe7e54ca	-0.24837032
214	0xbedda85d	-0.43292513
215	0xbe43176d	-0.19051905
216	0xbd6e2f4e	-0.058150582
217	0xbf45442b	-0.7705714
218	0xbf0dcd73	-0.55391616
219	0xbe393888	-0.18087971
220	0xbd12cb31	-0.03583831
221	0x3e87a5f8	0.26493812
222	0xbf23f71e	-0.64048946
223	0x3d4007e5	0.04688253
224	0xbf91114f	-1.1333407
225	0x3da629ab	0.08113416
226	0xbcd4de84	-0.02598501
227	0x3eb06614	0.3445288
228	0x3ece2d16	0.40268773
229	0xbeae9dcf	-0.34104773
230	0xbf00ae23	-0.5026571
231	0xbf3473d2	-0.7048923
232	0x3d9ba91d	0.07600615
233	0xbf7ad740	-0.97984695
234	0x3f227ac0	0.6346855
235	0x3f13f373	0.5779335
236	0x3f5d40d2	0.8642703
237	0x3e02cd0d	0.12773533
238	0x3ee6d80e	0.45086712
239	0xbec4d36e	-0.38442558
240	0xbe5a7a2e	-0.2133567
241	0x3f25e67b	0.6480481
242	0xbcf57747	-0.029964102
243	0x3ebb5eae	0.36595672
244	0xbe2c0549	-0.16798891
245	0x3f45ab57	0.7721457
246	0x3c955c9e	0.01823264
247	0x3eeccc3e	0.46249574
248	0x3c8a7fd0	0.016906649
249	0x3d8e86b0	0.06959283
250	0xbf4f0149	-0.80861336
251	0xbf913b86	-1.134629
252	0xbe9a5ace	-0.30147403
253	0x3f27458f	0.65340513
254	0xbe3143ad	-0.17310973
255	0x3f874f4c	1.0571074
