AttentionAgent/pretrained/TakeCover/model.npz (npz, 14778 bytes, 1 tensors)

params f4 [3633]
0	0xbec2cc9a	-0.38046724
1	0xbfa24f07	-1.2680367
2	0x3e09dafe	0.13462445
3	0xbaf28a26	-0.0018504306
4	0xbea004ef	-0.31253764
5	0x3f142bfe	0.57879627
6	0xbe8f3ac4	-0.27974522
7	0x3e6211e8	0.22077143
8	0x3dc51c84	0.096245795
9	0x3e08b5d6	0.13350615
10	0x3eb365c7	0.35038587
11	0xbe4113c2	-0.18855193
12	0x3e1f8db2	0.15581396
13	0x3f0b8b6e	0.5450963
14	0xbde7d8f5	-0.11320678
15	0x3ecb702a	0.39734012
16	0xbf3116df	-0.69175524
17	0xbd818709	-0.06324584
18	0xbd662c84	-0.056194797
19	0x3f08b09b	0.5339448
20	0xbdd261c7	-0.10272556
21	0x3f360804	0.7110598
22	0x3eef1667	0.4669678
23	0x3f125f61	0.57176787
24	0xbe646c96	-0.22307047
25	0xbe947dd8	-0.2900226
26	0xbf0a4971	-0.5401831
27	0x3e3cce0e	0.18437979
28	0x3ba03100	0.0048886538
29	0x3ec34310	0.38137102
30	0xbf9fdf7e	-1.2490079
31	0xbc810b93	-0.01575259
32	0xbf262873	-0.6490547
33	0xbc8205e0	-0.015871942
34	0x3f83ce0c	1.0297256
35	0x3d9d5287	0.076817565
36	0xbd786b7d	-0.060649384
37	0x3ea7c2e7	0.32765886
38	0xbe6649fd	-0.22489162
39	0x3e0857b8	0.13314712
40	0xbc56536d	-0.013081414
41	0xbeebc586	-0.46049136
42	0x3e3057b2	0.17220953
43	0x3c8d269d	0.017230326
44	0xbe83fa3e	-0.25776857
45	0xbd894e19	-0.06704349
46	0xbe0c9a95	-0.13730843
47	0x3de4a62d	0.11164508
48	0x3f08f501	0.53498846
49	0xbe356529	-0.17714371
50	0xbe9885a2	-0.29789454
51	0x3e25ffce	0.16210863
52	0x3ed86915	0.4226767
53	0xbf00b6c7	-0.50278896
54	0xbef0c65f	-0.47026345
55	0xbef496c2	-0.4777127
56	0x3f82c338	1.0215826
57	0xbf0fa012	-0.5610362
58	0xbdb8d6be	-0.09025334
59	0xbee94172	-0.45557743
60	0xbec92983	-0.39289483
61	0x3ea701a0	0.32618427
62	0x3e5a7f7d	0.21337695
63	0xbe2f35a0	-0.171103
64	0xbe649366	-0.22321853
65	0xbcf0174a	-0.02930798
66	0xbea0debc	-0.31419933
67	0xbe39df58	-0.18151605
68	0xbe0055d4	-0.12532741
69	0xbf5c9bd9	-0.86175305
70	0x3d1bfeab	0.038084667
71	0x3cfa78f7	0.030575259
72	0xbdf807d5	-0.12110869
73	0x3ee3e647	0.44511625
74	0x3ec67534	0.38761294
75	0xbd36de1f	-0.044645425
76	0xbec7750f	-0.38956496
77	0xbf7c93d5	-0.98663074
78	0x3f3460dc	0.70460296
79	0xbd2f9bf3	-0.042873334
80	0x3f36ebf7	0.71453804
81	0x3ee19249	0.4405692
82	0xbdc5e38f	-0.09662544
83	0xbf41c390	-0.7568903
84	0x3eeb50e6	0.45960158
85	0x3e8c791d	0.27436152
86	0xbe9ba5c0	-0.30399895
87	0xbf1a7c86	-0.6034626
88	0x3f5234cc	0.8211181
89	0xbe9ee44e	-0.31033558
90	0x3e329d13	0.17442732
91	0x3da3eed4	0.08004537
92	0x3ddc45d9	0.1075551
93	0x3dee93af	0.11649262
94	0x3ebf78b9	0.37396792
95	0x3e2b4584	0.16725737
96	0xbe5b63dd	-0.21424814
97	0x3f0c900f	0.54907316
98	0xbdb1416e	-0.08655058
99	0xbd82a7a8	-0.06379634
100	0x3ec851ba	0.39124852
101	0xbee430b4	-0.44568408
102	0xbeac3a72	-0.3363834
103	0x3e0a8ca6	0.13530216
104	0xbe861ab0	-0.26192236
105	0x3e1fe54d	0.15614815
106	0xbf27df3c	-0.65575004
107	0x3ca0eb29	0.019643383
108	0x3ec13d93	0.3774229
109	0xbd9900ca	-0.074708536
110	0xbe131bf6	-0.14366135
111	0x3f9b9e7b	1.2157739
112	0x3e945422	0.28970438
113	0x3f1ec703	0.6202242
114	0xbf100954	-0.56264234
115	0xbe9e727f	-0.3094673
116	0x3eab316b	0.3343614
117	0x3e71c582	0.236105
118	0xbd4a6708	-0.049414665
119	0x3c389c2d	0.011267704
120	0xbf3a9514	-0.72883725
121	0xbed9c40c	-0.42532384
122	0x3fad2bd0	1.3528996
123	0xbea0e74e	-0.3142647
124	0xbef75e52	-0.48314148
125	0xbd808efd	-0.06277273
126	0xbb6c393e	-0.0036044861
127	0x3f30c14b	0.6904494
128	0xbf29c770	-0.6631994
129	0xbf5516d3	-0.8323795
130	0x3dd889fb	0.10573193
131	0xbf042a2e	-0.5162686
132	0xbeca4613	-0.39506587
133	0xbd327671	-0.043569986
134	0x3eb1dd7c	0.34739292
135	0xbed058eb	-0.4069284
136	0xbdfcab43	-0.12337353
137	0xbf039e9b	-0.5141389
138	0xbe4a42ce	-0.19752046
139	0x3dd19288	0.10233027
140	0x3e8caa9d	0.27473918
141	0xbe8fc40b	-0.28079256
142	0xbe978b58	-0.29598498
143	0xbeccc41c	-0.3999337
144	0xbe44c1b8	-0.19214523
145	0xbefff8b8	-0.49994445
146	0xbe26059a	-0.16213074
147	0xbe930acb	-0.28719172
148	0x3ea65677	0.32487842
149	0xbf2a56e5	-0.6653884
150	0xbec347a9	-0.3814061
151	0x3f465277	0.7746958
152	0xbe6d38c7	-0.2316619
153	0x3f88198f	1.06328
154	0xbe28a2ea	-0.16468397
155	0xbed7ae64	-0.42125237
156	0x3ec4cd60	0.3843794
157	0xbcee27da	-0.029071737
158	0xbf278754	-0.6544087
159	0xbf233a5c	-0.63760924
160	0x3e555af2	0.20835474
161	0x3d291c84	0.04128696
162	0x3eef54a0	0.4674425
163	0xbe4ecb02	-0.20194629
164	0x3f056f70	0.52123165
165	0xbde12763	-0.109938405
166	0x3f147ca6	0.580027
167	0x3c13d457	0.009022794
168	0xbd57c241	-0.05267549
169	0x3f4a4ad1	0.7902041
170	0x3e900413	0.28128108
171	0x3e9016ad	0.281423
172	0x3dff14c8	0.124551356
173	0x3d06e281	0.032930855
174	0x3f1acc44	0.60467935
175	0xbe5302ca	-0.20606533
176	0xbf4f1d77	-0.80904335
177	0xbe263360	-0.16230536
178	0x3ead492a	0.33844882
179	0x3e852b89	0.26009777
180	0x3e420c6b	0.1895005
181	0x3c636708	0.013879545
182	0x3f2d052f	0.67586035
183	0x3e90ab07	0.28255484
184	0xbda2719e	-0.07931827
185	0xbe0bf706	-0.1366845
186	0x3f15f90e	0.5858315
187	0x3ecf12c6	0.4044401
188	0xbcb50521	-0.022097172
189	0xbe91db5a	-0.28487664
190	0x3e2d18c4	0.16903979
191	0xbc9d2ea7	-0.019187285
192	0x3f03d94d	0.5150345
193	0xbce5027d	-0.027955288
194	0xbe6e5dbd	-0.23277946
195	0xbf0f0ce8	-0.5587907
196	0xbe8e3051	-0.27771237
197	0xbd36ffd1	-0.04467756
198	0x3f206da4	0.626673
199	0xbf361a62	-0.71134007
200	0xbd00c4c7	-0.03143766
201	0xbe91f380	-0.28506088
202	0xbe98b461	-0.29825118
203	0xbcb2df85	-0.021835098
204	0xbe14d36e	-0.14533779
205	0xbea3b923	-0.31977186
206	0x3eaeb1c0	0.34119987
207	0x3e28e508	0.16493618
208	0xbe5bff61	-0.21484138
209	0xbec4f9dc	-0.38471878
210	0x3d7bcff3	0.061477613
211	0xbea50460	-0.322299
212	0xbe0677b4	-0.131316
213	0x3bcbe930	0.0062228665
214	0x3e206d56	0.15666708
215	0x3e965324	0.29360306
216	0x3bee86cc	0.0072792526
217	0xbf5e427a	-0.86820185
218	0xbe0bb1a2	-0.1364198
219	0xbe9632da	-0.29335672
220	0xbe06ddae	-0.13170502
221	0xbde90227	-0.11377364
222	0x3ea2c633	0.3179184
223	0x3e9ab5c3	0.30216798
224	0x3e895583	0.26823053
225	0x3dbc6afa	0.09200092
226	0x3df5d62f	0.12003743
227	0xbde84612	-0.1134149
228	0x3f12f9e2	0.5741254
229	0xbf6d2526	-0.9263481
230	0x3daaacfa	0.08333774
231	0xbf0670d6	-0.52515924
232	0xbed31c1b	-0.4123238
233	0x3f19bfc0	0.6005821
234	0xbe9c55fd	-0.30534354
235	0xbe9d5663	-0.3072997
236	0xbe922857	-0.28546402
237	0xbca96900	-0.02067995
238	0xbfa9f292	-1.3277152
239	0xbe128849	-0.14309801
240	0x3ddd61d3	0.10809674
241	0xbebb9206	-0.36634845
242	0xbf475879	-0.77869374
243	0x3efcda44	0.49385273
244	0xbee3630d	-0.44411507
245	0x3e9b7a15	0.3036658
246	0xbf56a6e4	-0.83848405
247	0xbf059068	-0.5217347
248	0x3f6ef936	0.93349016
249	0x3eacdc91	0.3376203
250	0x3f4b93f6	0.79522645
251	0xbf6e657a	-0.9312359
252	0xbe0d5701	-0.1380272
253	0xbf8ccd50	-1.1000156
254	0xbf381b21	-0.71916395
255	0x3de18e56	0.110134766
