AttentionNeuron/pretrained/ant_mlp/model.npz (npz, 9258 bytes, 1 tensors)

params f4 [2248]
000000 dd ab 02 be bc 09 f9 be a6 9f 4c 3e 51 89 bc be
       -0.12760873 -0.4864024 0.19982776 -0.36823514
000010 e2 4c d5 3d ea 4e a6 3b 67 91 3e 3c 9f 72 55 3e
       0.10415055 0.0050753253 0.011631346 0.20844506
000020 4a 0e 80 be b3 6e bf be d9 07 5c be 6e 6d 3f 3e
       -0.25010902 -0.37389144 -0.21487369 0.18694088
000030 27 84 69 3c 3c b8 6d bb ea ed d2 3d 94 f5 76 3e
       0.014252699 -0.0036273142 0.10299285 0.24117118
000040 42 99 ab 3e a9 18 00 3e 99 4b 17 3f 04 0d 40 be
       0.33515364 0.12509407 0.5909973 -0.18754965
000050 32 a3 6b be 2c 25 54 3e 05 85 10 3e 3d f7 42 3d
       -0.23011473 0.20717305 0.14113243 0.047599066
000060 9b 71 51 3e 82 5f 81 bd 87 d9 af be 1c 8a 9e be
       0.20453493 -0.06317045 -0.34345648 -0.30964744
000070 10 24 1c 3e 8e bb da 3e dd c1 95 3e 4d db 06 3e
       0.15248132 0.42721218 0.29249468 0.13169594
000080 01 6b 15 3f f5 b5 56 3e a4 9f 88 3d ad e9 47 bd
       0.583664 0.20967849 0.06671074 -0.048806835
000090 56 f3 a3 be da 73 73 bd 76 4d 07 3e 47 e6 5a bd
       -0.32021588 -0.059436657 0.13213143 -0.053442266
0000a0 31 26 dd 3e e2 68 d6 3e ae 45 19 3e 1b d1 02 3e
       0.431932 0.41876894 0.14967987 0.1277508
0000b0 75 c7 44 bd a7 9b 48 3e d4 5d 95 3e 84 3b 4a 3e
       -0.04804178 0.19590627 0.29173148 0.19749266
0000c0 01 a4 d3 3e f9 a5 9a 3d e8 2f e7 3d fd 1c 7a be
       0.41336063 0.07551188 0.11288434 -0.2442512
0000d0 d2 dc 24 3b 2b cb 44 bd 1b 97 0b be 51 00 6d 3e
       0.0025156033 -0.04804532 -0.13631861 0.23144652
0000e0 8d d1 f4 3d 3e e2 ff 3d 91 a1 72 3e d2 87 a0 be
       0.11954031 0.12494324 0.23694445 -0.31353623
0000f0 ab be 9f be a5 74 b8 3d 00 a9 7c be 2f 5d af 3d
       -0.31200156 0.09006623 -0.24673843 0.08562695
000100 33 1a 84 be c5 94 45 be 93 70 d6 3d 47 9c e4 3e
       -0.25801238 -0.19295032 0.104706906 0.4465048
000110 0f 81 55 3e d6 25 2b be 81 18 92 be 95 be 09 be
       0.20850013 -0.16713652 -0.2853432 -0.13451608
000120 17 9c 09 bf b9 c0 a7 bc 65 a4 97 bc cb 83 37 bf
       -0.537538 -0.02047764 -0.018511007 -0.71685475
000130 e9 10 a4 3e 22 0a 87 3e 4d 63 4f be 7f cc 38 bd
       0.3204415 0.26374918 -0.20252724 -0.045116898
000140 ed 66 33 3d 34 24 03 be 2f b6 bf 3e 50 ee 8b 3d
       0.04379933 -0.12806779 0.37443683 0.06832564
000150 08 f0 a0 3c 47 bc 92 be 80 f9 9c bd a5 ac 3a 3e
       0.019645706 -0.2865927 -0.07664776 0.18229921
000160 79 b3 d8 3e d1 25 dc 3d 8e 16 78 be 5f 79 bd 3e
       0.42324427 0.107494004 -0.24227354 0.3700666
000170 3d 45 5d be ef 97 a3 3d f6 89 03 bf 76 b2 80 be
       -0.21608444 0.079879634 -0.51382387 -0.25136155
000180 24 25 a8 3d 93 e1 83 bd 38 b0 86 bc 17 ee 04 be
       0.08210209 -0.06439509 -0.01644145 -0.12981449
000190 5d 68 6d bc ef 25 44 be 30 d3 b0 be da 36 17 3e
       -0.014490214 -0.19155096 -0.34536123 0.14767018
0001a0 58 c7 82 3e b0 f5 31 3e ae da 2a bf 00 33 87 be
       0.25542712 0.17378879 -0.6673993 -0.26406097
0001b0 52 ee 61 3e 92 6a 85 3e 88 96 2a bc 3b 76 52 3e
       0.22063568 0.2605787 -0.010411866 0.20552914
0001c0 22 69 af be a2 84 84 bc 06 bb 56 3e 74 8a 86 3c
       -0.34259897 -0.016176526 0.20969781 0.016423441
0001d0 5c 83 99 bd 8a 13 49 3e 0b 1e 4c be 3e 53 f6 bd
       -0.07495758 0.1963636 -0.19933335 -0.12027596
0001e0 1a e7 22 be 73 61 b1 be 38 f8 9a be ab fb 13 3e
       -0.15908471 -0.3464466 -0.302675 0.14451472
0001f0 78 85 bf be 86 d7 ac bc df a8 b8 be da 9d 97 be
       -0.37406516 -0.021098863 -0.36066338 -0.2961262
000200 4f 2e b2 be 64 5d 09 be 87 e4 37 be 2e fd ee 3e
       -0.34800956 -0.13414532 -0.1795827 0.46677536
000210 45 a0 cc be 55 2d 9f be b3 93 d3 bd 38 dc 4d be
       -0.39966026 -0.31089273 -0.10330906 -0.20103538
000220 fe d1 82 bb d2 c9 8f bd f0 64 8c be 3e cd 2b be
       -0.003992318 -0.07020916 -0.2742076 -0.16777512
000230 13 e9 b1 be 40 00 ac 3e 12 e2 07 3e 3d 53 cd be
       -0.34748134 0.3359394 0.13269833 -0.40102568
000240 b2 aa ca 3e 6a a0 a1 3e 0a ef be be f9 96 9c 3c
       0.39583355 0.315677 -0.37291747 0.019114958
000250 b4 22 82 bd a4 99 ad bd 41 ca fd 3e 33 a7 b5 bd
       -0.06354275 -0.0847657 0.4956837 -0.08869781
000260 50 8b bb bd 7f 5d 1e be 80 b5 3c be 51 e9 84 3d
       -0.09157431 -0.15465353 -0.18428612 0.06489814
000270 fc 84 a6 bd 40 10 bb be 47 e0 fb be 38 98 ce bc
       -0.081308335 -0.36535835 -0.49194548 -0.025219068
000280 cf cd ec 3d 16 b8 66 3e d0 a7 0c bd b7 ed f4 bd
       0.115626924 0.2253116 -0.034339726 -0.11959403
000290 98 6e 62 be 74 52 c4 be 2a 31 37 3d 11 78 e6 3e
       -0.221125 -0.38344157 0.04472462 0.45013478
0002a0 d3 04 57 3e 8b dd bd bc 6e ad 41 bd 74 19 98 bd
       0.20997934 -0.023176929 -0.047284536 -0.0742673
0002b0 4a e5 48 3e ef ef ec bd d8 ba 5b be 6d 6e 87 be
       0.19618717 -0.11569201 -0.21457994 -0.26451436
0002c0 27 bb 33 3e 07 47 41 be ff d2 e9 bb 0c f3 e9 be
       0.17551862 -0.18874751 -0.0071357484 -0.45693243
0002d0 b9 68 94 3e a0 f7 80 be ba 02 12 3f f4 e3 9e 3e
       0.28986147 -0.25188923 0.5703541 0.3103329
0002e0 97 14 24 bf 0a 8c 05 3e 28 da 05 3e 6b 4b 14 be
       -0.6409392 0.13041702 0.13071501 -0.14481895
0002f0 52 e6 12 3f b8 1c 92 3e 85 13 62 be 17 d5 e9 3e
       0.5738269 0.28537536 -0.22077759 0.45670387
000300 87 cf 48 3d de e9 bc bd e4 1e 68 bc 7b d8 5d 3f
       0.04902604 -0.09224294 -0.014167521 0.8665845
000310 bd 5d 19 be ad 9d 0e 3e bd 2f 04 be 61 cf 13 3c
       -0.14977165 0.13927336 -0.12908836 0.009021611
000320 81 bb 03 be b9 6e 1f be 4c 68 a3 3e 85 53 9a 3e
       -0.12864496 -0.15569581 0.3191551 0.30141845
000330 c4 9c 1d be 2b 61 0b be 5e fd 16 bd 6a a4 b0 bc
       -0.15391833 -0.13611285 -0.036862724 -0.021562774
000340 9d 23 7c bd 3f fa 90 3e cf e9 a1 bd 2a 50 63 3e
       -0.0615574 0.28315923 -0.079059236 0.22198549
000350 0f 69 1a be 3e 02 e5 3e be c6 ad 3e a4 ef cc 3d
       -0.15079139 0.44728273 0.3394069 0.10006645
000360 f3 75 1a 3e 4e 57 3f 3e 15 45 4f be a4 81 e1 3d
       0.15084057 0.18685648 -0.20241196 0.11011055
000370 53 39 cf 3e c0 de 35 be 17 32 0b be 20 08 93 be
       0.40473422 -0.17760754 -0.13593327 -0.28717136
000380 98 d8 ce be 1e 48 dc be 4f 62 9e 3d 71 a8 a3 be
       -0.40399623 -0.4302377 0.077335946 -0.31964448
000390 24 ac 83 3e d8 3e c7 bd 93 c0 3a 3e 74 7b f9 bb
       0.2571727 -0.09728783 0.18237524 -0.0076135937
0003a0 8e 06 ea 3d 78 9b 23 be 13 45 9c bd 6d a4 90 bd
       0.114270315 -0.15977275 -0.07630362 -0.07062612
0003b0 10 9a 38 3e df 86 d8 3d 5d 74 87 be 3a fc 9d be
       0.1802752 0.105725996 -0.26455966 -0.30856496
0003c0 2e a7 e6 be da c8 d5 bb 5a c6 29 3e a9 3b 0c be
       -0.45049423 -0.0065241875 0.16579571 -0.13694634
0003d0 83 99 63 be 6a 18 4a be a9 f8 96 3e fb 87 3e bd
       -0.22226529 -0.19735876 0.29486588 -0.0465164
0003e0 2e 70 4c bd 79 1d 02 bd 3e 5e fa 3d d2 fd df be
       -0.04991167 -0.03176639 0.122250065 -0.43748337
0003f0 95 ff 74 be 54 8b af bd 44 01 b4 bd 41 58 80 bd
       -0.23925622 -0.085714966 -0.08789304 -0.06266833
